================================================================================================================================================================
Layer (type (var_name):depth-idx)                            Input Shape               Output Shape              Param #                   Trainable
================================================================================================================================================================
WanModel (WanModel)                                          [2, 16, 21, 80, 80]       [2, 16, 28, 80, 80]       --                        True
├─TemporalLatentEncoder (latent_encoder): 1-1                [2, 16, 21, 80, 80]       [2, 16, 6, 80, 80]        --                        True
│    └─Conv3d (conv_in): 2-1                                 [2, 16, 21, 80, 80]       [2, 256, 21, 80, 80]      110,848                   True
│    └─Sequential (down_block1): 2-2                         [2, 256, 21, 80, 80]      [2, 256, 11, 80, 80]      --                        True
│    │    └─ResnetBlock3D (0): 3-1                           [2, 256, 21, 80, 80]      [2, 256, 21, 80, 80]      --                        True
│    │    │    └─GroupNorm (norm1): 4-1                      [2, 256, 21, 80, 80]      [2, 256, 21, 80, 80]      512                       True
│    │    │    └─SiLU (nonlinearity): 4-2                    [2, 256, 21, 80, 80]      [2, 256, 21, 80, 80]      --                        --
│    │    │    └─Conv3d (conv1): 4-3                         [2, 256, 21, 80, 80]      [2, 256, 21, 80, 80]      1,769,728                 True
│    │    │    └─GroupNorm (norm2): 4-4                      [2, 256, 21, 80, 80]      [2, 256, 21, 80, 80]      512                       True
│    │    │    └─SiLU (nonlinearity): 4-5                    [2, 256, 21, 80, 80]      [2, 256, 21, 80, 80]      --                        --
│    │    │    └─Dropout (dropout): 4-6                      [2, 256, 21, 80, 80]      [2, 256, 21, 80, 80]      --                        --
│    │    │    └─Conv3d (conv2): 4-7                         [2, 256, 21, 80, 80]      [2, 256, 21, 80, 80]      1,769,728                 True
│    │    │    └─Identity (shortcut): 4-8                    [2, 256, 21, 80, 80]      [2, 256, 21, 80, 80]      --                        --
│    │    └─ResnetBlock3D (1): 3-2                           [2, 256, 21, 80, 80]      [2, 256, 21, 80, 80]      --                        True
│    │    │    └─GroupNorm (norm1): 4-9                      [2, 256, 21, 80, 80]      [2, 256, 21, 80, 80]      512                       True
│    │    │    └─SiLU (nonlinearity): 4-10                   [2, 256, 21, 80, 80]      [2, 256, 21, 80, 80]      --                        --
│    │    │    └─Conv3d (conv1): 4-11                        [2, 256, 21, 80, 80]      [2, 256, 21, 80, 80]      1,769,728                 True
│    │    │    └─GroupNorm (norm2): 4-12                     [2, 256, 21, 80, 80]      [2, 256, 21, 80, 80]      512                       True
│    │    │    └─SiLU (nonlinearity): 4-13                   [2, 256, 21, 80, 80]      [2, 256, 21, 80, 80]      --                        --
│    │    │    └─Dropout (dropout): 4-14                     [2, 256, 21, 80, 80]      [2, 256, 21, 80, 80]      --                        --
│    │    │    └─Conv3d (conv2): 4-15                        [2, 256, 21, 80, 80]      [2, 256, 21, 80, 80]      1,769,728                 True
│    │    │    └─Identity (shortcut): 4-16                   [2, 256, 21, 80, 80]      [2, 256, 21, 80, 80]      --                        --
│    │    └─TemporalDownsample (2): 3-3                      [2, 256, 21, 80, 80]      [2, 256, 11, 80, 80]      --                        True
│    │    │    └─Conv3d (conv): 4-17                         [2, 256, 21, 80, 80]      [2, 256, 11, 80, 80]      1,769,728                 True
│    └─Sequential (down_block2): 2-3                         [2, 256, 11, 80, 80]      [2, 256, 6, 80, 80]       --                        True
│    │    └─ResnetBlock3D (0): 3-4                           [2, 256, 11, 80, 80]      [2, 256, 11, 80, 80]      --                        True
│    │    │    └─GroupNorm (norm1): 4-18                     [2, 256, 11, 80, 80]      [2, 256, 11, 80, 80]      512                       True
│    │    │    └─SiLU (nonlinearity): 4-19                   [2, 256, 11, 80, 80]      [2, 256, 11, 80, 80]      --                        --
│    │    │    └─Conv3d (conv1): 4-20                        [2, 256, 11, 80, 80]      [2, 256, 11, 80, 80]      1,769,728                 True
│    │    │    └─GroupNorm (norm2): 4-21                     [2, 256, 11, 80, 80]      [2, 256, 11, 80, 80]      512                       True
│    │    │    └─SiLU (nonlinearity): 4-22                   [2, 256, 11, 80, 80]      [2, 256, 11, 80, 80]      --                        --
│    │    │    └─Dropout (dropout): 4-23                     [2, 256, 11, 80, 80]      [2, 256, 11, 80, 80]      --                        --
│    │    │    └─Conv3d (conv2): 4-24                        [2, 256, 11, 80, 80]      [2, 256, 11, 80, 80]      1,769,728                 True
│    │    │    └─Identity (shortcut): 4-25                   [2, 256, 11, 80, 80]      [2, 256, 11, 80, 80]      --                        --
│    │    └─ResnetBlock3D (1): 3-5                           [2, 256, 11, 80, 80]      [2, 256, 11, 80, 80]      --                        True
│    │    │    └─GroupNorm (norm1): 4-26                     [2, 256, 11, 80, 80]      [2, 256, 11, 80, 80]      512                       True
│    │    │    └─SiLU (nonlinearity): 4-27                   [2, 256, 11, 80, 80]      [2, 256, 11, 80, 80]      --                        --
│    │    │    └─Conv3d (conv1): 4-28                        [2, 256, 11, 80, 80]      [2, 256, 11, 80, 80]      1,769,728                 True
│    │    │    └─GroupNorm (norm2): 4-29                     [2, 256, 11, 80, 80]      [2, 256, 11, 80, 80]      512                       True
│    │    │    └─SiLU (nonlinearity): 4-30                   [2, 256, 11, 80, 80]      [2, 256, 11, 80, 80]      --                        --
│    │    │    └─Dropout (dropout): 4-31                     [2, 256, 11, 80, 80]      [2, 256, 11, 80, 80]      --                        --
│    │    │    └─Conv3d (conv2): 4-32                        [2, 256, 11, 80, 80]      [2, 256, 11, 80, 80]      1,769,728                 True
│    │    │    └─Identity (shortcut): 4-33                   [2, 256, 11, 80, 80]      [2, 256, 11, 80, 80]      --                        --
│    │    └─TemporalDownsample (2): 3-6                      [2, 256, 11, 80, 80]      [2, 256, 6, 80, 80]       --                        True
│    │    │    └─Conv3d (conv): 4-34                         [2, 256, 11, 80, 80]      [2, 256, 6, 80, 80]       1,769,728                 True
│    └─Sequential (mid_block): 2-4                           [2, 256, 6, 80, 80]       [2, 256, 6, 80, 80]       --                        True
│    │    └─ResnetBlock3D (0): 3-7                           [2, 256, 6, 80, 80]       [2, 256, 6, 80, 80]       --                        True
│    │    │    └─GroupNorm (norm1): 4-35                     [2, 256, 6, 80, 80]       [2, 256, 6, 80, 80]       512                       True
│    │    │    └─SiLU (nonlinearity): 4-36                   [2, 256, 6, 80, 80]       [2, 256, 6, 80, 80]       --                        --
│    │    │    └─Conv3d (conv1): 4-37                        [2, 256, 6, 80, 80]       [2, 256, 6, 80, 80]       1,769,728                 True
│    │    │    └─GroupNorm (norm2): 4-38                     [2, 256, 6, 80, 80]       [2, 256, 6, 80, 80]       512                       True
│    │    │    └─SiLU (nonlinearity): 4-39                   [2, 256, 6, 80, 80]       [2, 256, 6, 80, 80]       --                        --
│    │    │    └─Dropout (dropout): 4-40                     [2, 256, 6, 80, 80]       [2, 256, 6, 80, 80]       --                        --
│    │    │    └─Conv3d (conv2): 4-41                        [2, 256, 6, 80, 80]       [2, 256, 6, 80, 80]       1,769,728                 True
│    │    │    └─Identity (shortcut): 4-42                   [2, 256, 6, 80, 80]       [2, 256, 6, 80, 80]       --                        --
│    │    └─WanEncoderAttentionBlock (1): 3-8                [2, 256, 6, 80, 80]       [2, 256, 6, 80, 80]       --                        True
│    │    │    └─WanLayerNorm (norm): 4-43                   [2, 38400, 256]           [2, 38400, 256]           --                        --
│    │    │    └─WanSelfAttention (attn): 4-44               [2, 38400, 256]           [2, 38400, 256]           263,680                   True
│    │    └─ResnetBlock3D (2): 3-9                           [2, 256, 6, 80, 80]       [2, 256, 6, 80, 80]       --                        True
│    │    │    └─GroupNorm (norm1): 4-45                     [2, 256, 6, 80, 80]       [2, 256, 6, 80, 80]       512                       True
│    │    │    └─SiLU (nonlinearity): 4-46                   [2, 256, 6, 80, 80]       [2, 256, 6, 80, 80]       --                        --
│    │    │    └─Conv3d (conv1): 4-47                        [2, 256, 6, 80, 80]       [2, 256, 6, 80, 80]       1,769,728                 True
│    │    │    └─GroupNorm (norm2): 4-48                     [2, 256, 6, 80, 80]       [2, 256, 6, 80, 80]       512                       True
│    │    │    └─SiLU (nonlinearity): 4-49                   [2, 256, 6, 80, 80]       [2, 256, 6, 80, 80]       --                        --
│    │    │    └─Dropout (dropout): 4-50                     [2, 256, 6, 80, 80]       [2, 256, 6, 80, 80]       --                        --
│    │    │    └─Conv3d (conv2): 4-51                        [2, 256, 6, 80, 80]       [2, 256, 6, 80, 80]       1,769,728                 True
│    │    │    └─Identity (shortcut): 4-52                   [2, 256, 6, 80, 80]       [2, 256, 6, 80, 80]       --                        --
│    └─GroupNorm (norm_out): 2-5                             [2, 256, 6, 80, 80]       [2, 256, 6, 80, 80]       512                       True
│    └─SiLU (act_out): 2-6                                   [2, 256, 6, 80, 80]       [2, 256, 6, 80, 80]       --                        --
│    └─Conv3d (conv_out): 2-7                                [2, 256, 6, 80, 80]       [2, 16, 6, 80, 80]        110,608                   True
├─Conv3d (patch_embedding): 1-2                              [1, 20, 28, 80, 80]       [1, 1536, 28, 40, 40]     124,416                   True
├─Conv3d (patch_embedding): 1-3                              [1, 20, 28, 80, 80]       [1, 1536, 28, 40, 40]     (recursive)               True
├─ActionEncoder (action_encoder): 1-4                        [1, 81]                   [1, 21, 1536]             --                        True
│    └─Embedding (embedding_move): 2-8                       [1, 81]                   [1, 81, 256]              2,560                     True
│    └─Embedding (embedding_view): 2-9                       [1, 81]                   [1, 81, 256]              2,560                     True
│    └─Sequential (encode_1): 2-10                           [1, 512, 81]              [1, 512, 41]              --                        True
│    │    └─Conv1d (0): 3-10                                 [1, 512, 81]              [1, 512, 41]              786,944                   True
│    │    └─GroupNorm (1): 3-11                              [1, 512, 41]              [1, 512, 41]              1,024                     True
│    │    └─ReLU (2): 3-12                                   [1, 512, 41]              [1, 512, 41]              --                        --
│    └─Sequential (encode_2): 2-11                           [1, 512, 41]              [1, 512, 21]              --                        True
│    │    └─Conv1d (0): 3-13                                 [1, 512, 41]              [1, 512, 21]              786,944                   True
│    │    └─GroupNorm (1): 3-14                              [1, 512, 21]              [1, 512, 21]              1,024                     True
│    │    └─ReLU (2): 3-15                                   [1, 512, 21]              [1, 512, 21]              --                        --
│    └─Linear (proj): 2-12                                   [1, 21, 512]              [1, 21, 1536]             787,968                   True
├─Sequential (time_embedding): 1-5                           [2, 256]                  [2, 1536]                 --                        True
│    └─Linear (0): 2-13                                      [2, 256]                  [2, 1536]                 394,752                   True
│    └─SiLU (1): 2-14                                        [2, 1536]                 [2, 1536]                 --                        --
│    └─Linear (2): 2-15                                      [2, 1536]                 [2, 1536]                 2,360,832                 True
├─Sequential (time_projection): 1-6                          [2, 1536]                 [2, 9216]                 --                        True
│    └─SiLU (0): 2-16                                        [2, 1536]                 [2, 1536]                 --                        --
│    └─Linear (1): 2-17                                      [2, 1536]                 [2, 9216]                 14,164,992                True
├─Sequential (time_embedding): 1-7                           [2, 256]                  [2, 1536]                 (recursive)               True
│    └─Linear (0): 2-18                                      [2, 256]                  [2, 1536]                 (recursive)               True
│    └─SiLU (1): 2-19                                        [2, 1536]                 [2, 1536]                 --                        --
│    └─Linear (2): 2-20                                      [2, 1536]                 [2, 1536]                 (recursive)               True
├─Sequential (time_projection): 1-8                          [2, 1536]                 [2, 9216]                 (recursive)               True
│    └─SiLU (0): 2-21                                        [2, 1536]                 [2, 1536]                 --                        --
│    └─Linear (1): 2-22                                      [2, 1536]                 [2, 9216]                 (recursive)               True
├─Sequential (text_embedding): 1-9                           [2, 512, 4096]            [2, 512, 1536]            --                        True
│    └─Linear (0): 2-23                                      [2, 512, 4096]            [2, 512, 1536]            6,292,992                 True
│    └─GELU (1): 2-24                                        [2, 512, 1536]            [2, 512, 1536]            --                        --
│    └─Linear (2): 2-25                                      [2, 512, 1536]            [2, 512, 1536]            2,360,832                 True
├─ModuleList (blocks): 1-10                                  --                        --                        --                        True
│    └─WanAttentionBlock (0): 2-26                           [2, 44800, 1536]          [2, 44800, 1536]          9,216                     True
│    │    └─WanLayerNorm (norm1): 3-16                       [2, 11200, 1536]          [2, 11200, 1536]          --                        --
│    │    └─WanSelfAttention (self_attn): 3-17               [2, 11200, 1536]          [2, 11200, 1536]          --                        True
│    │    │    └─Linear (q): 4-53                            [2, 11200, 1536]          [2, 11200, 1536]          2,360,832                 True
│    │    │    └─WanRMSNorm (norm_q): 4-54                   [2, 11200, 1536]          [2, 11200, 1536]          1,536                     True
│    │    │    └─Linear (k): 4-55                            [2, 11200, 1536]          [2, 11200, 1536]          2,360,832                 True
│    │    │    └─WanRMSNorm (norm_k): 4-56                   [2, 11200, 1536]          [2, 11200, 1536]          1,536                     True
│    │    │    └─Linear (v): 4-57                            [2, 11200, 1536]          [2, 11200, 1536]          2,360,832                 True
│    │    │    └─Linear (o): 4-58                            [2, 11200, 1536]          [2, 11200, 1536]          2,360,832                 True
│    │    └─WanLayerNorm (norm1): 3-18                       [2, 44800, 1536]          [2, 44800, 1536]          --                        --
│    │    └─WanSelfAttention (self_attn): 3-19               [2, 44800, 1536]          [2, 33600, 1536]          (recursive)               True
│    │    │    └─Linear (q): 4-59                            [2, 44800, 1536]          [2, 44800, 1536]          (recursive)               True
│    │    │    └─WanRMSNorm (norm_q): 4-60                   [2, 44800, 1536]          [2, 44800, 1536]          (recursive)               True
│    │    │    └─Linear (k): 4-61                            [2, 44800, 1536]          [2, 44800, 1536]          (recursive)               True
│    │    │    └─WanRMSNorm (norm_k): 4-62                   [2, 44800, 1536]          [2, 44800, 1536]          (recursive)               True
│    │    │    └─Linear (v): 4-63                            [2, 44800, 1536]          [2, 44800, 1536]          (recursive)               True
│    │    │    └─Linear (o): 4-64                            [2, 33600, 1536]          [2, 33600, 1536]          (recursive)               True
│    │    └─WanLayerNorm (norm3): 3-20                       [2, 44800, 1536]          [2, 44800, 1536]          3,072                     True
│    │    └─WanT2VCrossAttention (cross_attn): 3-21          [2, 44800, 1536]          [2, 44800, 1536]          --                        True
│    │    │    └─Linear (q): 4-65                            [2, 44800, 1536]          [2, 44800, 1536]          2,360,832                 True
│    │    │    └─WanRMSNorm (norm_q): 4-66                   [2, 44800, 1536]          [2, 44800, 1536]          1,536                     True
│    │    │    └─Linear (k): 4-67                            [2, 512, 1536]            [2, 512, 1536]            2,360,832                 True
│    │    │    └─WanRMSNorm (norm_k): 4-68                   [2, 512, 1536]            [2, 512, 1536]            1,536                     True
│    │    │    └─Linear (v): 4-69                            [2, 512, 1536]            [2, 512, 1536]            2,360,832                 True
│    │    │    └─Linear (o): 4-70                            [2, 44800, 1536]          [2, 44800, 1536]          2,360,832                 True
│    │    └─WanLayerNorm (norm2): 3-22                       [2, 33600, 1536]          [2, 33600, 1536]          --                        --
│    │    └─Sequential (ffn): 3-23                           [2, 33600, 1536]          [2, 33600, 1536]          --                        True
│    │    │    └─Linear (0): 4-71                            [2, 33600, 1536]          [2, 33600, 8960]          13,771,520                True
│    │    │    └─GELU (1): 4-72                              [2, 33600, 8960]          [2, 33600, 8960]          --                        --
│    │    │    └─Linear (2): 4-73                            [2, 33600, 8960]          [2, 33600, 1536]          13,764,096                True
│    │    └─WanLayerNorm (norm2): 3-24                       [2, 11200, 1536]          [2, 11200, 1536]          --                        --
│    │    └─Sequential (ffn): 3-25                           [2, 11200, 1536]          [2, 11200, 1536]          (recursive)               True
│    │    │    └─Linear (0): 4-74                            [2, 11200, 1536]          [2, 11200, 8960]          (recursive)               True
│    │    │    └─GELU (1): 4-75                              [2, 11200, 8960]          [2, 11200, 8960]          --                        --
│    │    │    └─Linear (2): 4-76                            [2, 11200, 8960]          [2, 11200, 1536]          (recursive)               True
│    └─WanAttentionBlock (1): 2-27                           [2, 44800, 1536]          [2, 44800, 1536]          9,216                     True
│    │    └─WanLayerNorm (norm1): 3-26                       [2, 11200, 1536]          [2, 11200, 1536]          --                        --
│    │    └─WanSelfAttention (self_attn): 3-27               [2, 11200, 1536]          [2, 11200, 1536]          --                        True
│    │    │    └─Linear (q): 4-77                            [2, 11200, 1536]          [2, 11200, 1536]          2,360,832                 True
│    │    │    └─WanRMSNorm (norm_q): 4-78                   [2, 11200, 1536]          [2, 11200, 1536]          1,536                     True
│    │    │    └─Linear (k): 4-79                            [2, 11200, 1536]          [2, 11200, 1536]          2,360,832                 True
│    │    │    └─WanRMSNorm (norm_k): 4-80                   [2, 11200, 1536]          [2, 11200, 1536]          1,536                     True
│    │    │    └─Linear (v): 4-81                            [2, 11200, 1536]          [2, 11200, 1536]          2,360,832                 True
│    │    │    └─Linear (o): 4-82                            [2, 11200, 1536]          [2, 11200, 1536]          2,360,832                 True
│    │    └─WanLayerNorm (norm1): 3-28                       [2, 44800, 1536]          [2, 44800, 1536]          --                        --
│    │    └─WanSelfAttention (self_attn): 3-29               [2, 44800, 1536]          [2, 33600, 1536]          (recursive)               True
│    │    │    └─Linear (q): 4-83                            [2, 44800, 1536]          [2, 44800, 1536]          (recursive)               True
│    │    │    └─WanRMSNorm (norm_q): 4-84                   [2, 44800, 1536]          [2, 44800, 1536]          (recursive)               True
…
│    │    │    └─Linear (k): 4-757                           [2, 44800, 1536]          [2, 44800, 1536]          (recursive)               True
│    │    │    └─WanRMSNorm (norm_k): 4-758                  [2, 44800, 1536]          [2, 44800, 1536]          (recursive)               True
│    │    │    └─Linear (v): 4-759                           [2, 44800, 1536]          [2, 44800, 1536]          (recursive)               True
│    │    │    └─Linear (o): 4-760                           [2, 33600, 1536]          [2, 33600, 1536]          (recursive)               True
│    │    └─WanLayerNorm (norm3): 3-310                      [2, 44800, 1536]          [2, 44800, 1536]          3,072                     True
│    │    └─WanT2VCrossAttention (cross_attn): 3-311         [2, 44800, 1536]          [2, 44800, 1536]          --                        True
│    │    │    └─Linear (q): 4-761                           [2, 44800, 1536]          [2, 44800, 1536]          2,360,832                 True
│    │    │    └─WanRMSNorm (norm_q): 4-762                  [2, 44800, 1536]          [2, 44800, 1536]          1,536                     True
│    │    │    └─Linear (k): 4-763                           [2, 512, 1536]            [2, 512, 1536]            2,360,832                 True
│    │    │    └─WanRMSNorm (norm_k): 4-764                  [2, 512, 1536]            [2, 512, 1536]            1,536                     True
│    │    │    └─Linear (v): 4-765                           [2, 512, 1536]            [2, 512, 1536]            2,360,832                 True
│    │    │    └─Linear (o): 4-766                           [2, 44800, 1536]          [2, 44800, 1536]          2,360,832                 True
│    │    └─WanLayerNorm (norm2): 3-312                      [2, 33600, 1536]          [2, 33600, 1536]          --                        --
│    │    └─Sequential (ffn): 3-313                          [2, 33600, 1536]          [2, 33600, 1536]          --                        True
│    │    │    └─Linear (0): 4-767                           [2, 33600, 1536]          [2, 33600, 8960]          13,771,520                True
│    │    │    └─GELU (1): 4-768                             [2, 33600, 8960]          [2, 33600, 8960]          --                        --
│    │    │    └─Linear (2): 4-769                           [2, 33600, 8960]          [2, 33600, 1536]          13,764,096                True
│    │    └─WanLayerNorm (norm2): 3-314                      [2, 11200, 1536]          [2, 11200, 1536]          --                        --
│    │    └─Sequential (ffn): 3-315                          [2, 11200, 1536]          [2, 11200, 1536]          (recursive)               True
│    │    │    └─Linear (0): 4-770                           [2, 11200, 1536]          [2, 11200, 8960]          (recursive)               True
│    │    │    └─GELU (1): 4-771                             [2, 11200, 8960]          [2, 11200, 8960]          --                        --
│    │    │    └─Linear (2): 4-772                           [2, 11200, 8960]          [2, 11200, 1536]          (recursive)               True
├─Head (head): 1-11                                          [2, 44800, 1536]          [2, 44800, 64]            3,072                     True
│    └─WanLayerNorm (norm): 2-56                             [2, 44800, 1536]          [2, 44800, 1536]          --                        --
│    └─Linear (head): 2-57                                   [2, 44800, 1536]          [2, 44800, 64]            98,368                    True
================================================================================================================================================================
Total params: 1,446,658,384
Trainable params: 1,446,658,384
Non-trainable params: 0
Total mult-adds (Units.TERABYTES): 3.88
================================================================================================================================================================
…
